tp7-ml/code/model.pth (torch, 753012 bytes, 5 tensors)

0.weight f4 [1024, 54]
00000000: 42e0 d33d 5ff9 02be 603c 12be 8b1b c8bc
00000010: 2cfd b63d bedf 0b3e d233 cfb9 e005 d0bd
00000020: 1550 8d3d e549 613c 3d3e c6bb 38f8 7ebd
00000030: 62e7 1ebe 829d 06bd bb6b 0bbe 1b09 883c
00000040: 202c f9bd a0ed bebd 7df3 c53d 96e1 f63c
00000050: f685 443c 3c3f b13d 372c 143e cc10 25bc
00000060: 74a2 e1bd 562d 93bd 59d1 853c ee7d da3c
00000070: ce10 14be 5e53 b4bd e13c c9bd 9fe2 bbbd
00000080: c2a0 d33b 27b2 cebb e2dc e3bc 8fbf a1bd
00000090: 8ce6 a53c dd72 f53d 4c2f 9ebd 280e 0fbe
000000a0: d35d f1bd 34c4 ab3d 67fe 543d 64f8 60bd
000000b0: a560 00be 65f1 61bd e8fc 9abd ea4c 5ebd
000000c0: 6224 9b3b dc9f 76bd 8b00 4f3c a59d a73d
000000d0: 6d73 a0bd 22ba 62bd 02ed d0bd 03ec 4ebd
000000e0: 4cab e2bd 825a e4bd e208 b33c 0994 44bd
000000f0: 94cf ee3d 0b87 013d 5236 483d 1fc4 a1bc
00000100: 98ae e9bc 1f19 9bbd cec8 0fbd aa68 5f3d
00000110: cc2b 2f3c ec01 8abd 07d5 02be 83ae c03c
00000120: b7e2 c93c 7d9c 8b3d c23f e13c bcd3 27bd
00000130: df74 bcbc a17d dfbd d1de adbd 210a 883d
00000140: 0641 bdbd 1c5a 893b 16cf 9d3c 0156 9c3c
00000150: f898 6ebd ab29 433c 44bf 953d 031f b73d
00000160: b392 ee3d 1602 ce3c de52 f3bc b895 92b7
00000170: f2d7 3ebd 641c 08bc 80ea e7bd 43a8 c23d
00000180: ad2d 17be a425 653d 868e de3d 1eb1 eb3d
00000190: b632 c83d 31fc 93bc c99f efbc 49a5 993d
000001a0: 76f3 e53d 3126 c43d c463 04be b02e 923d
000001b0: d53e 3fbd a02b 45bd 2b01 843d ba8a ea3d
000001c0: 684f 973d f530 98bd 2746 b43d 69b1 86bc
000001d0: 7df7 78bc cb08 583d d216 d03d f1d0 3b3d
000001e0: 30d7 183d 771d 243d 4261 963d 9410 463d
000001f0: 08de 343d 9971 d53c e929 f9bd ce63 a33d
00000200: 74f6 ed3c 627d 433c cd8f f43d 02b5 ca3c
00000210: 8612 a8bd 734f 8b3d ea1d 993d 3295 20be
00000220: 2c9e d23d 5f8f aabd 7ff2 ad3a f215 99bd
00000230: 0739 3fbd ef93 083d 5c96 c83d 0de8 913d
00000240: de19 cebd aaed a33c 9940 12be a00d 13be
00000250: 54b7 82bc c2d2 5cbd e79b f33d 317c e9bd
00000260: ab45 803b b364 9f3d cc57 debd 59c9 8fbd
00000270: 4aec 1abe dd32 f93d 5f46 5e3d cb4a 753d
00000280: 01d0 9fbd 6f7a efbd be83 b1bd 6d39 a7bd
00000290: 0ac8 cbbd d03d bcbb a238 4dbd 679d 053c
000002a0: 3ae4 af3c 0c38 e7bd e803 d8bd 5de9 ea3d
000002b0: 797e 03bd 0a22 ef3d 17f1 643d 06d8 b0bc
000002c0: e0ed e9bd 474c 403d 3e99 05be 7299 803c
000002d0: 703a 18be 3c59 843d 57ba 9ebd 7f20 95bd
000002e0: 9b39 9c3c 6c1d 40bd 2fea e7bb af51 52bc
000002f0: 6a20 8ebd 22d4 b8bd 9f09 4d3d c311 babc
00000300: 3ef7 1f3c 96bf 9dbd d726 ee3d a06a 9a3d
00000310: c7a6 49bc ba76 84bd 15ff ccbd ec34 113e
00000320: e372 3d3c bb20 ca3c 5868 abbc 782f 623d
00000330: 0673 d93c c870 903d 4fc8 81bd e2ca 8a3d
00000340: 6128 8dbd be72 0a3e b7d2 203d ca13 573c
00000350: d293 883d 5865 a4bd e095 46bd 4e6f 91bd
00000360: 0f52 b53d 24d7 bebd 0927 db3d 1fbe 95bd
00000370: 89a6 fcbc 31d4 053e ef97 123e dfc4 12be
00000380: 66e1 c53d d37e d0bd dacd b6bb 96c1 8bbd
00000390: 325a 2ebc 4397 d4bd b7c8 713d bdff 123d
000003a0: 5f3c debd e3d8 b83d 1ad5 99bc 20f9 24bd
000003b0: 8ca3 b33d ef9f c7bd bd87 e53d d415 7fbc
000003c0: 50f7 233c c02e 05be 2132 dd3d 4c32 7ebd
000003d0: f7df d13d dab0 50bc f808 b33a 92e0 e7bd
000003e0: 540c b83c 8e62 98bd 64ff d33d fef1 0bbe
000003f0: 6637 54bd 4373 913d 7e45 e5bc 8a6d c8bd
0.10345508 -0.1279044 -0.14280844 -0.024427196 0.089350075 0.1365957 -0.00039520726 -0.101573706
0.0690004 0.013750528 -0.0060499 -0.06224844 -0.15517953 -0.032865055 -0.13615315 0.016605904
-0.12166619 -0.09322667 0.09665582 0.030136865 0.011994829 0.08654639 0.14469992 -0.0100748055
-0.110173136 -0.071863815 0.016335176 0.026671376 -0.14459535 -0.088049635 -0.09826065 -0.09174084
0.006458373 -0.0063078585 -0.027815286 -0.07897865 0.020251535 0.11984799 -0.07723865 -0.13970244
-0.11785474 0.08387032 0.05200043 -0.054924384 -0.12536867 -0.055161852 -0.07567769 -0.05427257
0.004734562 -0.060211048 0.012634407 0.08184365 -0.07834516 -0.05535329 -0.10201456 -0.050518047
-0.110678285 -0.111500755 0.021854822 -0.04799274 0.11660686 0.031622928 0.04887993 -0.019746838
-0.028525636 -0.07573151 -0.03510361 0.054543175 0.010691594 -0.06738648 -0.12776576 0.023520714
0.024644239 0.06816957 0.027496222 -0.04097341 -0.023004947 -0.10912634 -0.084897645 0.06642557
-0.09240918 0.00419165 0.019263785 0.019083979 -0.05825135 0.01191179 0.07311872 0.08941462
0.116490744 0.025147479 -0.0297026 -1.7474275e-05 -0.04659266 -0.00830755 -0.11324024 0.095047496
-0.14763518 0.0559441 0.10867028 0.11508392 0.09775297 -0.01806459 -0.029250996 0.07502229
0.11228077 0.09577597 -0.12928683 0.07137811 -0.04669078 -0.048137307 0.06445535 0.11452241
0.073881924 -0.07431213 0.08802443 -0.016442018 -0.015195725 0.05274276 0.10160603 0.04585356
0.037314594 0.040067162 0.07342769 0.048355654 0.044157058 0.026055144 -0.12166197 0.079780206
0.029048182 0.011931749 0.1194149 0.024744514 -0.08206658 0.06802263 0.07476409 -0.15681913
0.10284075 -0.08328127 0.0013271122 -0.07474889 -0.046685245 0.033344205 0.09794304 0.07124338
-0.100635275 0.020010788 -0.14282455 -0.14360666 -0.015956558 -0.05391193 0.118949704 -0.11400641
0.003914555 0.07782879 -0.1085659 -0.07020826 -0.151292 0.121679045 0.05426633 0.05988578
-0.078033455 -0.11693274 -0.08667706 -0.0816525 -0.09950264 -0.0057446733 -0.050102837 0.008155203
0.021471132 -0.11289987 -0.1054762 0.11470292 -0.032103036 0.11676414 0.055893984 -0.021587383
-0.11422324 0.046947744 -0.13046739 0.015698168 -0.14866042 0.064623326 -0.07750385 -0.07281589
0.019070437 -0.04690306 -0.0070774774 -0.012836858 -0.06939776 -0.09024836 0.050058004 -0.022713548
0.009763537 -0.07702558 0.11628502 0.07539868 -0.012307829 -0.06467958 -0.100095905 0.14180344
0.011563036 0.02467381 -0.020923778 0.05522105 0.026544105 0.07052761 -0.06337034 0.06776978
-0.06892467 0.13520333 0.039263453 0.013127277 0.066688195 -0.08027142 -0.048482776 -0.07101308
0.08853542 -0.093183786 0.10700805 -0.07311653 -0.030841129 0.13069226 0.1431577 -0.14332913
0.09662132 -0.1018044 -0.0055787386 -0.06824033 -0.010641621 -0.103804134 0.059029307 0.035888422
-0.108513586 0.09025743 -0.018778373 -0.040276647 0.087714285 -0.09747302 0.11207531 -0.015569169
0.010007694 -0.13006115 0.10800577 -0.062059686 0.10247796 -0.012737477 0.0013659289 -0.1132213
0.022466816 -0.07440673 0.10351446 -0.13666531 -0.051810645 0.071020626 -0.027987238 -0.09786518

0.bias f4 [1024]
00000000: d551 ccbc 28c0 3fbd dce3 f7bd 0df7 073e
00000010: b01c fe3d 82ef a53d 9cc3 873d 91d2 443c
00000020: 20ad 6dbd 0b54 b63d 71ef 323d 83c8 e43b
00000030: 0a6c 8dbc 9975 1dbd c012 c7bd ddc4 92bd
00000040: 1f76 febd 9778 a7bc 6e5a d33d 8586 323d
00000050: 0e7b 72bd 54b5 b73c 7b3c 8d3d 839d 4a3d
00000060: afd3 8c3d c888 b2bd 2947 883b b1f5 673d
00000070: 063a a93d b6bb 613d be35 37bb d09f b3bd
00000080: c194 b3bd 2b60 383c 8024 6cbd eb9a 803a
00000090: 2551 f83d a9f0 5abc f732 05bd 23a2 b23c
000000a0: cc74 dabd 6cfa ddbd 551d 6dbd 854e 443c
000000b0: c7bd 213d b43c a13c 1b4d e8bc ed36 e6bd
000000c0: 0578 0f3e 457a 5bbd 3a59 363d 4ec7 f7bd
000000d0: d926 9b3d 0e4f dcba 7d52 fa3c 423c 0e3e
000000e0: 2f6f 843d 2b63 d13d cca6 e73a c4c4 4bbd
000000f0: e196 02be dc12 34bd e296 953c a691 163c
00000100: 8428 a7bd 6ed1 49bc afe1 4ebc 9b9a 943d
00000110: b68e 0dbd fe94 383d a50e 853c a907 983d
00000120: c083 a03d fe48 773d fbdb aebd 0fb1 bcbd
00000130: eea8 cb3d d71e 8cbd 41ab ddbd cae9 dc3d
00000140: d2c7 77bd 8f3a 903c d3ee 7abd ae0c ad3c
00000150: 42ee 3e3d 59ba d03d 5f50 00be 188e eebd
00000160: 60ad 0e3e 0b90 32bd 5cc7 a63b 8db3 e7bd
00000170: 47ef 96bc 146f 80bd 5237 f5bd 3b42 b8bd
00000180: 0f45 da3d 3f21 213d 86b6 0dbd 414c 3f3c
00000190: 075d e83d 71a8 cb3d d36c 9fbd 01a9 5b3d
000001a0: 17dd 10be a2f1 733d ef23 b3bd fadb e5bd
000001b0: 8d12 c6bd 9c15 dfbd 0e6a c9bd c5bf ac3d
000001c0: 0b89 01be b8de 06bc edf9 4a3d 82d9 1ebd
000001d0: 9f19 ee3d a200 ea3d cb96 e73d 93f4 0cbd
000001e0: 9128 d53c fb15 673d ff97 eabd 1583 d2bd
000001f0: 3faa c9bd 6162 c23d ce88 40bd a41b c53d
00000200: 4d7e 51bc b47a 07bd 5a9e f8bd 552b 013d
00000210: edfc 88bd 2cdf a93d 1d68 b13d db4e 68bd
00000220: 6bbd 9b3c 6460 ae3d f307 953d fcbd c43d
00000230: 47aa e6bd 7222 133d cf6f 0fbe b3e8 ad3d
00000240: 365a 85bd abfe f0bd bc93 ae3d 6541 013e
00000250: b288 9b3b 8ff4 2fbd 6422 703d aedf aa3c
00000260: 366b 1f3d f9f5 063e 3732 9a3d dc02 56bd
00000270: c362 aebd f21f aabd c1a3 0e3d 179e 573c
00000280: b3dd 9d3d e7cb a8bd 1d99 8ebd a9ba f63d
00000290: 024f f0bc ebec 87bd 65a9 48bd d2db d5bd
000002a0: 098e a33d f114 493d c74d 69bc 1b6e 00be
000002b0: c74f aabd 0eae 703d 8736 0f3d 6f3c 9a3c
000002c0: 521a 9c3d 33d2 0f3e d15f c83d efec db3d
000002d0: 496d e43c 5ff0 b1bd e88e 8a3d c366 60bd
000002e0: 4bfd f73d 3e0a 3e3d 3b88 8bbb 1547 66bd
000002f0: 66ef b9bd d9e2 45bd 8293 fbbd 1bb7 29bd
00000300: ed22 d23d be60 bcbd 3b3b a43d 9e9f 3f3d
00000310: 95f2 dcbc 9dc1 2e3c 0d18 16be 390f 8b3c
00000320: 9cc6 2cbd 8560 d43c 402c a03d 222b ce3d
00000330: 9f82 7cbd bd29 ce3d a7e3 903c e79f cabd
00000340: c3a1 c13d 5d89 b8bd 5c56 edbd d423 8ebd
00000350: 520d 46bd 45da 60bd 06b4 9b3c b6f6 f93c
00000360: 9183 4fbd c897 063e ec4a c2bd 1fe2 e3bd
00000370: 7d38 b4bd 616b d23d 0be4 41bb 76a8 0dbe
00000380: 7854 2bbd 415d 0cbd 527c 14be 50b1 913d
00000390: 3a1b 72bb 31f6 82bd 047b f4bb bb4b a43d
000003a0: 0b16 6dbd 9333 1d3d e612 89bd a3c3 53bd
000003b0: 5df9 06be afc3 1e3d 4b82 ec3d de34 4c3c
000003c0: d760 3cbd 2aa9 0ebd 6862 403d ac2d a73d
000003d0: 4797 afbd c369 a5bd 16f2 d2bd 8f4f babc
000003e0: ff01 873d 442d 82bd 3901 433d e661 1bbd
000003f0: 611a 843d 4c47 9b3d bc7a 11be d9aa 06be
-0.024941364 -0.046814114 -0.121040076 0.13277836 0.124078155 0.08102323 0.066291064 0.012013094
-0.058026433 0.08902749 0.04368538 0.0069819107 -0.017263431 -0.038442228 -0.09720373 -0.07166455
-0.124248736 -0.020443244 0.103199825 0.04358532 -0.059199385 0.022425331 0.06896301 0.04946662
0.06876313 -0.08717495 0.0041588736 0.056630794 0.0826302 0.055110656 -0.0027955617 -0.08770716
-0.08768607 0.011253397 -0.057651997 0.0009811794 0.12124852 -0.013363042 -0.032519307 0.021805828
-0.106668085 -0.1083878 -0.0578893 0.011981611 0.039487626 0.019682266 -0.02835708 -0.11240945
0.14010628 -0.053583402 0.044518687 -0.12098561 0.07575769 -0.0016808228 0.030556912 0.13890174
0.06466519 0.10223993 0.0017673611 -0.049748197 -0.12752868 -0.0439633 0.018260423 0.009189999
-0.081620246 -0.012317998 -0.012627049 0.07256051 -0.034559928 0.045063965 0.016242335 0.07423336
0.07837629 0.060372345 -0.08538052 -0.09213459 0.0994433 -0.0684182 -0.1082368 0.10786779
-0.060493298 0.017606048 -0.061262917 0.02112421 0.04661394 0.10191793 -0.12530659 -0.11648196
0.13933325 -0.0435944 0.0050896835 -0.113135435 -0.018424643 -0.062711865 -0.11973442 -0.089970075
0.10657703 0.039338347 -0.034597896 0.011675895 0.113458686 0.09944237 -0.077844284 0.05362797
-0.14146839 0.05955661 -0.08747088 -0.11223598 -0.09671507 -0.108927935 -0.098346815 0.08435015
-0.12649934 -0.008231811 0.049554754 -0.03878165 0.116259806 0.11425902 0.11308058 -0.03441293
0.02602032 0.056417447 -0.11454772 -0.10278908 -0.09846925 0.094914205 -0.047005467 0.09624413
-0.01278646 -0.033076003 -0.12139578 0.031535465 -0.06688867 0.0829452 0.08662436 -0.056715827
0.01901122 0.08514479 0.07276907 0.09606549 -0.112629466 0.03592152 -0.14007495 0.084916495
-0.06511347 -0.11767324 0.08524272 0.12622602 0.00474652 -0.04295784 0.058626547 0.020858612
0.038920604 0.13179769 0.07529109 -0.05224882 -0.08514931 -0.08306874 0.034824137 0.01316025
0.077083014 -0.08242016 -0.06962798 0.12047321 -0.029334549 -0.066369854 -0.048989672 -0.10442318
0.079860754 0.049092237 -0.014239735 -0.12542002 -0.083159976 0.05875974 0.03496411 0.018827645
0.07622208 0.14045028 0.097839005 0.10738551 0.027884142 -0.08688425 0.067655385 -0.0547855
0.12108859 0.046396486 -0.0042581833 -0.056220133 -0.09078865 -0.048312042 -0.12283994 -0.04143439
0.10260568 -0.091981396 0.0801911 0.046783082 -0.02697114 0.010666278 -0.14657612 0.016975032
-0.042181596 0.02592493 0.0782094 0.10066821 -0.061648007 0.10066555 0.017686678 -0.0989378
0.09454682 -0.09010575 -0.11588737 -0.069404274 -0.048352547 -0.054895658 0.01900674 0.030513149
-0.05066258 0.13143837 -0.094869465 -0.111271136 -0.08799837 0.10274387 -0.0029585387 -0.13833794
-0.041828603 -0.03426862 -0.1450055 0.07113898 -0.0036942498 -0.063946135 -0.0074609537 0.08022257
-0.05788235 0.038379263 -0.06693058 -0.051700246 -0.13181062 0.038760837 0.11548289 0.012463776
-0.04599079 -0.034829296 0.046968848 0.08163008 -0.08573776 -0.08076813 -0.103000805 -0.022743015
0.065921776 -0.0635629 0.047608588 -0.03793516 0.06450344 0.07581958 -0.14206976 -0.1315111

4.weight f4 [128, 1024]
00000000: 3ffd 4a3c 9b56 b6bc 39c9 7cbc 1996 51bc
00000010: 2c31 36bd 72c9 113d 7570 fe3c 19e8 c4bb
00000020: 1282 93bc 36b8 833c 6634 9c3b 69dd 04bd
00000030: e388 0fbd 9c2f dd3c 3d79 6dbc 51bc 023b
00000040: 48f7 c5bb 63dd 8a3c fb67 25bc e6c7 5ebc
00000050: b0fe 443d 0b22 413c 53a6 4fbc 77ab ea3c
00000060: 2439 363c d7ad 0fbd e27a fb3c 85ca 043b
00000070: c3c5 5ebc cc20 1dbc 4ecd 103d 2d84 c33c
00000080: f301 c4bc 1bd5 9c3c 9d78 4e3c 1004 be3c
00000090: 2bd7 013a 2ac6 08bd 03f3 c4bb 2d75 063c
000000a0: d365 bfbc 311f 10ba 1429 313d 2d6e 9e39
000000b0: c2f6 7b3c 023b e53c aa7f 8a39 6709 5f3c
000000c0: 126d 1f3c 633f febc 20c7 643c 2eca 03bc
000000d0: 247a 353c a1ae 44bc 5086 a1ba 2e88 37bd
000000e0: 9caf d23b a84a 843b 9d07 b0bb 44c8 79bc
000000f0: c577 383c ccbe 0e3d 38f3 873c f55f 833c
00000100: d3c8 71bc 0500 153d 9c68 0a3d 714b 0ebd
00000110: d115 213c 823c 673a 620b e5bc 2dd5 15bd
00000120: 39f9 653c dc99 663a 0c35 aa3c 479f 913c
00000130: 0b22 b7bc cfc6 cbbc 7479 03ba 5202 1fbd
00000140: b0c7 283d 2e5a 02bd d73f 183b 5536 9f3b
00000150: c26e 0ebd 1ca7 c8bc d876 a33b c78f 673c
00000160: 31db 0c3c 1693 e7bc d651 743c 7a8b 3cbc
00000170: 469a 6abc 191f 09ba 228f 28bc 2109 8e3a
00000180: 9991 10bc 13c8 72bc 48cd 0a3d b4d4 4dbc
00000190: 4715 1a3c c64c d23b 9f09 563c 6ec7 f6bc
000001a0: fb90 343d 1564 063d 92f6 e63c fed3 48bd
000001b0: ce06 ca3b 7820 ee3c e782 583c 5aff 5bbb
000001c0: 92fc 7dba dc2a feb9 ef74 46bd 8754 383b
000001d0: 430a 85bb 96a4 a8bc 3f16 c0bb a5b6 86bc
000001e0: 8c31 223d da7f a03c 29c5 503c 0af5 193c
000001f0: 8fa9 873c c671 a6bb 571b baba 01ac de3c
00000200: e5cd c0bb f7bc 6b3c 59a2 d93b daa8 4fbc
00000210: ff2d c9bc c459 b9bc 3a1a ef3b c774 103d
00000220: 54cf 02bd 98dd ad3c 6e11 af3b 896e 2ebc
00000230: 47b7 653c 18ae f6bc 914e a4bc bb2a acbc
00000240: e479 09bd 5d42 6fbc 75cf e1ba d651 0e3c
00000250: f8a0 233c 98a3 f8bb e8b3 1abc ea09 3b3d
00000260: 0bcc 9d3c 0e64 893b 1c39 f8bc db85 483d
00000270: d358 123d 2ef3 87bc 83f4 d93c 5f44 d93c
00000280: 2f5d cabb c96e 753a e162 5e3c f36a 2ebc
00000290: fead 5ebc 9afa 5fbc ed59 943b 7e03 40bd
000002a0: 1472 653c adaf 9e3c ddcc 2c3c f5a7 203c
000002b0: fab3 f1bb 4113 823b 4335 e0bb d6bc 83bc
000002c0: dc0c ce3b 7e95 b5bc 6add 34bc ba4f bbbc
000002d0: d13e 25bc 5116 cebc 1ebc 99ba a2a9 2b3b
000002e0: e7ea 013d ca54 16ba 2c34 673c 02f8 1a3c
000002f0: fcc7 283d 3922 173d de86 c93c 113f f439
00000300: 2f9d e83c 0271 4bbd 4687 06bd 8872 8b3b
00000310: e45d 6dbb a46f ce3c cb66 383c 3807 78bc
00000320: a395 0d3d 4ba9 2ebc 016a c6ba 0581 113d
00000330: 045e fb3c 3c4a 33bc b6dc 2bbc f23f 7abc
00000340: 111b 5cbc 45be eabc 86cf 5e3c bacb d7bc
00000350: 350d 233c 95f9 5fbc cdf3 273c 8342 16bd
00000360: 15a6 ea3b ae54 40bd 1564 4c3c 3e40 003b
00000370: 1c80 44bc bbcd 00bd c238 e4bb 65f9 7d3b
00000380: 7491 9b3b 30c4 823c 5f58 07b9 dc27 9f3a
00000390: da4c cc3b 3723 bc3c 3896 b1bc 1302 f1bb
000003a0: 1a77 9ebc 377d 35bc 7142 3c3d fa92 27bd
000003b0: 4fbf c1bc 9fc3 053c 1498 863c 7b27 32bd
000003c0: 73be 99bc 15ad af3c 299c be3c 947f 3d3c
000003d0: 4708 82bc 81a6 bc3b b391 45bc 6fae 933c
000003e0: 269c 05bd 7ff2 fdbc 17a0 b13c 3ef6 5bbc
000003f0: 123f 29bd acec 203d 1fa9 1f3d 4d94 0dbd
0.01238948 -0.022258094 -0.015428835 -0.012792134 -0.044480488 0.035592504 0.031059483 -0.0060091135
-0.018006358 0.01607905 0.0047669886 -0.032437716 -0.035042655 0.027000241 -0.0144942375 0.001994867
-0.006041441 0.016951269 -0.010095592 -0.013597464 0.04809445 0.011787902 -0.012673932 0.028646214
0.011122022 -0.035077896 0.030698244 0.0020262313 -0.013596955 -0.009590339 0.035352044 0.023866737
-0.02392671 0.019144585 0.012601999 0.023195297 0.0004953022 -0.03339211 -0.0060104146 0.008206648
-0.023363983 -0.0005497812 0.043252066 0.00030218196 0.015378656 0.027982239 0.00026416528 0.013613082
0.009730594 -0.031036085 0.013963491 -0.008043809 0.011076484 -0.012004525 -0.0012323353 -0.044807605
0.0064296257 0.00403722 -0.0053720013 -0.015245501 0.011259024 0.034849927 0.016595468 0.016036967
-0.014757353 0.03637697 0.03379117 -0.034739915 0.009831862 0.0008820967 -0.02795953 -0.036580253
0.01403647 0.00087967305 0.020777248 0.017776145 -0.0223551 -0.024875073 -0.00050153513 -0.038820572
0.04120606 -0.031824283 0.002323141 0.004858772 -0.034773596 -0.024493746 0.0049885325 0.0141334
0.008597181 -0.028268378 0.014912089 -0.011507863 -0.014319008 -0.0005230769 -0.010288032 0.0010836461
-0.008823776 -0.014818209 0.033887178 -0.012562919 0.009404487 0.0064178435 0.013063817 -0.030124392
0.044083577 0.03281029 0.028193746 -0.049030297 0.006165362 0.029068217 0.013214803 -0.003356895
-0.000968882 -0.00048478588 -0.04845136 0.0028126554 -0.004060061 -0.020586293 -0.005862027 -0.016444514
0.039598033 0.019592214 0.012742319 0.009396801 0.016560344 -0.005079481 -0.0014198822 0.027181627
-0.0058839195 0.014388314 0.006641668 -0.012674535 -0.024558065 -0.022625811 0.0072968276 0.035267618
-0.031936005 0.021223828 0.005342654 -0.010646471 0.0140207475 -0.030112311 -0.020056995 -0.02101647
-0.03356351 -0.014603225 -0.0017227965 0.008686503 0.009987108 -0.0075878613 -0.009442307 0.04566375
0.019262334 0.0041928357 -0.03030067 0.04895578 0.03572924 -0.01659545 0.02660585 0.02652186
-0.006175659 0.00093625166 0.013573379 -0.010645616 -0.013591288 -0.013670588 0.0045273216 -0.04687833
0.014004249 0.019370878 0.01054689 0.009805669 -0.007376191 0.0039695804 -0.006842287 -0.016081255
0.006288154 -0.02216601 -0.011039117 -0.022865165 -0.010085777 -0.025157126 -0.0011729037 0.0026193638
0.03171816 -0.00057346805 0.01411156 0.009458544 0.041206345 0.03689787 0.024600442 0.00046586295
0.028395263 -0.04966832 -0.03284385 0.0042555965 -0.0036219293 0.025199719 0.0112549765 -0.01513844
0.034566533 -0.01066048 -0.0015137793 0.035523433 0.030684479 -0.010942992 -0.010489633 -0.015274035
-0.0134341875 -0.02865518 0.013599282 -0.026342262 0.009951879 -0.013670345 0.010250998 -0.036684524
0.007160912 -0.046955757 0.012475033 0.0019569541 -0.011993434 -0.0314462 -0.006964774 0.0038753387
0.004747564 0.01596269 -0.00012907524 0.0012142616 0.0062347474 0.02296601 -0.021678075 -0.0073549836
-0.019343901 -0.011077217 0.0459618 -0.040911652 -0.023650793 0.0081643155 0.016429938 -0.043494683
-0.018767571 0.021444837 0.023267822 0.0115660615 -0.015873088 0.0057571535 -0.012058663 0.018027512
-0.032619618 -0.03099942 0.021682782 -0.013425408 -0.041319914 0.039288208 0.038979646 -0.03456526

4.bias f4 [128]
00000000: 9e05 273c c723 6bbc 4f5d d43c def4 dd3c
00000010: 06f5 e8bc c30c fc3c bf55 ef3c 6164 ac3c
00000020: 2823 653c 41f5 b63b d9c2 debc a825 d5bc
00000030: 5e60 e63c eccc c1bc 7f88 f73c e6a3 8b3c
00000040: 0446 d83b 4f73 a83b 7abc 733c 3de9 b1bc
00000050: 5bde e2bc 1626 aebc dbe4 a13c 8589 25bc
00000060: f73c c93c 1ed4 23bc 516e 05bd 3bde 89ba
00000070: ff71 803b 198d ee3b 6504 c1bc d089 8b3c
00000080: 77fc 7cbc d19b 56bc e663 c6bc 3c83 e33c
00000090: 156f 52bc 0584 f33c c779 f6bc 2f50 953c
000000a0: f0d6 c53b 6ef0 813c 4d16 8f3c fecf fd3b
000000b0: 684b 3fbc d6c2 4abc 10d4 71bc 1742 17bc
000000c0: 6927 87bc 0217 bebc 46b3 283c 392f bcbc
000000d0: c849 83bc 677d 523c 6f73 c53c c39e c13c
000000e0: d918 403c b1f1 89bb 37c9 7ebc d69f 863c
000000f0: f5a0 01bd b715 44bc 2302 8a3b 6435 9d3c
00000100: 6c51 aebc 0527 173a 73ed bf3c a0ed a23c
00000110: ec3e 7e3c 8e5d 2dbc 7ccb d33c 8804 a53c
00000120: ee4e 01bd 638c 8f3c 6af3 15bc 2d7f c2bc
00000130: 9bce d53c e1f8 df3c 0033 043c 4c8f 03bc
00000140: d3ec f1bc b652 093d 03b4 813c 1a96 cbbc
00000150: b2a4 b5bb 47c7 383c 93f3 acbc d9a3 75bb
00000160: cb21 46bb 83b1 7a3b 410d 7b3b 183f 7dba
00000170: 0f81 e5bc 65f6 eb3b 62e5 c13b 3dd6 e2bb
00000180: f54d aebc 60c0 a1bc 3376 09bc e122 f93c
00000190: 22c4 3bbc 06e7 ccbc 0dba 393b 0af3 5d3b
000001a0: 3961 7f3b 7c54 d23c 795d 853c 0aa5 a73c
000001b0: b2d3 bb3b 3797 743b 2bc5 adbc f15b 52bc
000001c0: 2c44 f43c 1e4d a03c ed1f ed3b 7840 0ebc
000001d0: 3f48 84bc c573 44bc 58bf d63c 9744 b2bc
000001e0: 098a 50bc 3e5e 9cb9 8dbc 5c3c d273 ffbc
000001f0: dabe 9b3c 82ee c6ba a547 493c 9911 c13c
0.01019421 -0.014351792 0.0259234 0.0270943 -0.028437149 0.030767804 0.029215692 0.021043958
0.013985433 0.0055834358 -0.02719252 -0.026018932 0.028122123 -0.023657285 0.030216454 0.017045926
0.0066001434 0.005140699 0.014876479 -0.021717662 -0.027693918 -0.021258395 0.019762447 -0.010103588
0.024565203 -0.009999303 -0.03257591 -0.00105185 0.0039198394 0.0072800037 -0.023561666 0.017033488
-0.015441052 -0.013098673 -0.024217557 0.027772538 -0.012843867 0.029726038 -0.030087365 0.018226711
0.0060375854 0.015861716 0.017466689 0.007745742 -0.011675693 -0.012375554 -0.014760032 -0.009232066
-0.016498284 -0.02320433 0.010296648 -0.022971736 -0.016026393 0.012847281 0.024102895 0.023635274
0.011724674 -0.00420972 -0.015550903 0.016433638 -0.03164764 -0.011968068 0.0042116805 0.019190498
-0.02127906 0.0005766007 0.023428654 0.019888699 0.015517931 -0.010581387 0.025853865 0.020143762
-0.031569414 0.017522996 -0.009152273 -0.023742283 0.026099494 0.027340354 0.0080688 -0.00802977
-0.029531872 0.033526145 0.015832907 -0.024851847 -0.005543315 0.01127798 -0.021112239 -0.0037481694
-0.0030232545 0.0038252778 0.003830746 -0.0009660586 -0.028015641 0.0072010034 0.005917237 -0.006922512
-0.021277407 -0.019745052 -0.008389997 0.03041214 -0.011460336 -0.025012504 0.0028339655 0.0033866786
0.0038967861 0.02567505 0.016279923 0.020464439 0.005732023 0.0037321576 -0.021212181 -0.012839303
0.029817663 0.019568022 0.007236472 -0.008682363 -0.01614773 -0.011990492 0.026214287 -0.021761222
-0.012728223 -0.00029824855 0.013472688 -0.031183157 0.019011904 -0.0015177282 0.012285148 0.023567962

8.weight f4 [1, 128]
00000000: 2238 a5bc 8310 aabd 11e1 813d 1fc3 4abd
00000010: a62d 53bd 22de 42bd 63c4 6f3d 0cac c73d
00000020: bac0 e43c d5d2 58bd 7d38 14bd 7e50 d93c
00000030: f1a1 bd3d e468 8e3d f128 a8bd 770a 913d
00000040: 492b bb3d b4d6 cfbd e42b 01bd 0138 22bd
00000050: 1c89 17bd 63e1 2ebd f952 7ebd 8cbc f33c
00000060: da07 15bd 0c0e ffbc 9314 a43d 4275 5dbd
00000070: 2909 963d 5d09 4b3d 8b94 fcbc f27d c8bd
00000080: 1ebb b1bc 5c72 9c3d 909d 8e3c 17d2 823d
00000090: a1d1 c33d 0121 d0bc f20c b63d e660 253d
000000a0: adf4 6c3d 55a9 61bd 920a 07bd ee71 b83d
000000b0: f4c6 763d 04e2 c53c 24bc ed3c 28f3 73bd
000000c0: 7d3d 79bd db0b 823d 8e86 3dbd 074e 6ebd
000000d0: 59a1 0e3d d105 acbd 7e9c 533c 5272 953d
000000e0: 82c5 ba3d b1b3 f43c dea4 c9bd 5065 b9bd
000000f0: 1f52 8b3c 6a12 efbc 88f1 1c3d cfb9 b5bd
00000100: 9234 92bd a985 973d 142c 4e3d 68ca c6bc
00000110: 0e1a 44bd c561 88bd e2df 923c e9c9 4b3c
00000120: 0d9e 333d 0ea3 01bd f1d4 113d 446d c8bd
00000130: bc16 543d 2fc2 34bd 8e0a 493d 705f 5d3d
00000140: 80ad ac3d 82ab b9bd b6ff 99bc ef1a 34bd
00000150: e839 4c3d 2944 603d c321 03bd e9a0 c73d
00000160: 6bc3 8e3d dea7 a3bd aacf 643d 580f dd3c
00000170: e65e ac3c 8837 7bbd 38cf 39bd 800f 3bbd
00000180: fa29 863d 11a6 93bd adf4 c43d cbff 4f3d
00000190: 9ed3 83bd e1b2 b13d d720 28bd b995 43bd
000001a0: f8f5 f33c db2f 0cbd eaa4 1c3d b76e 933d
000001b0: eca0 fd3c dfbd 863d 6b04 26bd 45ae a0bc
000001c0: a185 01bd 5345 ad3d 52de 0bbd 57da 123d
000001d0: 2b85 bd3c 23de 26bd b2b6 b33d 3849 bb3c
000001e0: 0ee6 fb3c c3f0 6a3c 979a 6a3d 60df 903d
000001f0: 9cfc dabc e5f0 943d b1f2 a43d 9d63 9ebd
-0.020168368 -0.083039306 0.06341756 -0.04950249 -0.051557206 -0.047575124 0.0585369 0.09749612
0.02792393 -0.05293544 -0.036186684 0.02652764 0.092594035 0.069536 -0.08210934 0.07082074
0.09139115 -0.10148373 -0.031535998 -0.03960419 -0.036995992 -0.042695414 -0.062090848 0.029752992
-0.03638444 -0.031134628 0.08011737 -0.054066904 0.07325966 0.049569476 -0.03083255 -0.09789647
-0.02169567 0.07639 0.017409116 0.06387728 0.09561468 -0.025406362 0.08889188 0.040375613
0.05785053 -0.05509313 -0.032969065 0.09006105 0.06024833 0.024155624 0.029020377 -0.059558064
-0.060849655 0.063499175 -0.0462709 -0.05817988 0.034821842 -0.08399547 0.012915729 0.072971955
0.09119703 0.02987084 -0.09845899 -0.09052527 0.017006932 -0.029183585 0.03831628 -0.08873331
-0.07138933 0.073985405 0.050335005 -0.024266437 -0.04787641 -0.06659273 0.017929021 0.012438276
0.0438519 -0.03164964 0.035603467 -0.09786466 0.051779494 -0.0441305 0.04908233 0.054046094
0.0843153 -0.09065916 -0.01879869 -0.043971 0.04985991 0.054752503 -0.03201462 0.09747488
0.06970867 -0.079910025 0.055862106 0.026984856 0.021041345 -0.061332256 -0.045363635 -0.04566908
0.06550975 -0.07209409 0.09616981 0.050781053 -0.06436847 0.086766966 -0.041046944 -0.04775021
0.029780373 -0.034225326 0.03824321 0.071988516 0.030960523 0.06579184 -0.040531557 -0.019614348
-0.03162158 0.08460488 -0.034147568 0.035852756 0.023134788 -0.04073919 0.08775081 0.022862062
0.030749347 0.014339629 0.057276335 0.070738554 -0.026731782 0.072725095 0.08054102 -0.077338435
